chatbot/BLSTM.pth (torch, 153735 bytes, 10 tensors)

lstm.weight_ih_l0 f4 [32, 511]
00000000: 9aee ed3e 380d 82be 66cc 913e e84c cf3d
00000010: 5167 d0c0 adac 3a3f 7c93 bc3f b247 4e3f
00000020: afe2 ef3e 5163 e33f 4036 3640 4d46 4a3f
00000030: 06c4 a13f f07a c83e 7018 a73f bf6f 033f
00000040: e795 c93e 680a e23e 1961 3941 0269 de3e
00000050: d3a7 4a3f 66f6 de3f 15c4 9a3e 24d5 dc3f
00000060: 86d7 4b3f c328 c440 a7a2 abbf b98d b03e
00000070: 54fb 6f40 8b1a 323d 5c36 173f 8fba f23f
00000080: 02c4 7c3e 19a3 ad3f 2683 363e 6a97 993e
00000090: c2a4 8f3e 79e2 7e3f 8535 dc40 36b4 5f40
000000a0: 5ff2 2a3f 55b2 9abf 1ac7 be3e b04b 7d3f
000000b0: 99a6 0441 e746 b33f 3fb6 6540 0fe2 78be
000000c0: a285 c340 333a b03b c134 d23f b396 f03f
000000d0: ef47 1740 338d a540 97a8 1940 3b42 473f
000000e0: 80e4 c4c0 15f9 153f 568c 0140 b184 843f
000000f0: 59f1 1c3f 97f7 7340 cf35 c0be 3724 843f
00000100: 0076 8a3e 5a93 9a3f 9ba5 71bd 6482 313f
00000110: 5b41 233f 2f36 c73f a39a b73f 6a87 c240
00000120: ae18 0e3f bc10 d13c 35a1 d03b 8d36 5540
00000130: 5c7a 693f 2f6f 203f 8253 2ac0 fcdf b5bd
00000140: 0497 15be ccd5 603e ff51 db3c 2818 b33f
00000150: aabe ff3f b734 38bd 09c1 083f 434d e63e
00000160: 66bb 133f c62d e63e 2e3b 48bd 7a35 ef3f
00000170: 2fce 3cbd f833 4e40 57ae 0241 613a e63e
00000180: df47 ca3e 9887 b13f 7367 4e40 6bf9 8b3e
00000190: 8435 1c40 7e5d 5e3f a72a e63d 319f 983f
000001a0: 83b4 2940 8cd0 033f be66 7b3e 0f84 913e
000001b0: 6ea3 b63e 7d9d 033e 940e 183f 1073 163f
000001c0: ec53 b03f fdcb b33f 19fa 6b40 af79 ae3e
000001d0: 657b 6040 ef3e 7e3e 3584 433e e78d 8bbf
000001e0: 47be a3bd dcbe 173f fb2c 813f 2e2a 5040
000001f0: fcd4 bf3f 1f4f 0c40 fb7e 41be 1fa9 ff3f
00000200: 4b73 583e fecd 3c3f 849e a93d ede5 dc3c
00000210: 4874 4540 1f07 dc40 b6b1 9b3e c0fd bc3d
00000220: 3142 4041 c07e 2b40 e951 e73e e535 0f40
00000230: 7e07 ed3d 372f eb3c 8c41 fdc0 1067 a7bf
00000240: 63a3 31c0 6563 8ac0 592a cb3f 3b06 0340
00000250: 5d5d 8b3f 8c02 6140 f395 9e40 8032 7040
00000260: e062 e43c 831d 0340 fff5 0b3f 79b9 fd3f
00000270: db7f 93bd 9672 d53e e68b 173f 5e5e 8bbe
00000280: db1f 5c3e 9dba be40 beda 483f 8c83 f23f
00000290: d7b5 e63e 9a77 053e af79 ab3e 7e1f 8a3f
000002a0: ca59 7abd bae7 343f dbbe 0b3d a9bc cbbd
000002b0: 9f98 933f 3c83 a23e 1e42 963f b2e6 533f
000002c0: 8cf2 833f 5497 e13d 46c3 0040 88c0 243d
000002d0: f179 ab40 4ef0 e13e 4cef 5fbf 4461 50c0
000002e0: 480b 5140 6953 3140 4d0d 963f 4678 403e
000002f0: 0248 3340 bb3f 5840 96fb 6cbe 7302 4d40
00000300: 6b5b 5d40 8967 e9bd 53ad 883f 4996 df3e
00000310: cbb4 2c3e c193 733f 993b e53e 3c07 193e
00000320: 6516 9e3d 78f2 3040 023a 423e c77b 2b40
00000330: 5119 d53e 3cb8 013f ef7e ce40 638f 1d3f
00000340: 7df6 343f 825f c0bf 613f 0d3f 7b32 2c3e
00000350: 77d6 693d f35a e6bf 3d56 e040 ba59 343f
00000360: 3d5d 4a41 7b15 4940 bbdc 323e 65cc 153e
00000370: a039 18bf e7f4 3140 dc1e 72be 2775 0cbe
00000380: fd7b 5f40 702f 143e 4f6a 183f e25f 533e
00000390: 17ba e53f 5dc4 6f3f 6e01 cc3f e8ef 053f
000003a0: 68f4 ac3f f07c 07c1 faa3 713e 5756 82bd
000003b0: f09e 683f d0f1 1c3f f674 003f ff5b 9c40
000003c0: e61b ac3f f328 08bd 7c10 903f c96f b23d
000003d0: 1b6b 073f de30 9fbc 8df8 b93f 3a9c 32c1
000003e0: 7c16 ae3f c28a f13f 6af8 02c1 657c 703c
000003f0: f1e4 bf40 8a8e 3c3f 998d d5bf 844c 1b40
0.464711 -0.2540071 0.28476256 0.101220906 -6.512612 0.7291973 1.4732509 0.8057815
0.46852633 1.7764684 2.8470612 0.7901352 1.2637947 0.39156294 1.3054333 0.51342386
0.3937218 0.44148564 11.5862055 0.4343949 0.7916233 1.7418945 0.30227724 1.7252545
0.7962574 6.129976 -1.3409013 0.34483126 3.7497149 0.043482345 0.5906732 1.8963183
0.24684146 1.3565398 0.17823467 0.29998332 0.28055388 0.9956432 6.881533 3.4953742
0.6677608 -1.2085673 0.37261277 0.98943615 8.290673 1.4006013 3.5892484 -0.24304985
6.1100626 0.0053780316 1.6422349 1.879599 2.3637655 5.173486 2.400915 0.77835435
-6.152893 0.58583194 2.0241904 1.0352994 0.6130577 3.8119867 -0.37541053 1.0323552
0.27043152 1.2076218 -0.058995824 0.69339585 0.637716 1.556341 1.4344066 6.07903
0.5550641 0.025520675 0.0063668736 3.3314545 0.9120233 0.6266965 -2.661347 -0.08880612
-0.14608389 0.21956557 0.026772497 1.3991747 1.9980061 -0.044972148 0.5341955 0.4498082
0.5770782 0.44956797 -0.048884563 1.8688195 -0.04609507 3.221922 8.167563 0.44966415
0.39507958 1.3869505 3.225064 0.27338728 2.4407663 0.8686141 0.11238604 1.1923581
2.6516426 0.5149009 0.24550912 0.28421065 0.35671562 0.12853046 0.59397244 0.5876932
1.3775611 1.4046627 3.6871397 0.34077212 3.5075314 0.24828695 0.19093402 -1.090268
-0.07995277 0.59275603 1.0091852 3.2525744 1.4986873 2.1923292 -0.18896095 1.9973487
0.21137731 0.7375182 0.082821876 0.026965106 3.0852222 6.8758693 0.3040902 0.092280865
12.01616 2.6796112 0.4517968 2.2376645 0.11573695 0.028709037 -7.9142513 -1.3078327
-2.7755973 -4.324633 1.5872298 2.0472553 1.0887867 3.5157804 4.9558043 3.7530823
0.027879179 2.0486763 0.54672235 1.9822227 -0.07202121 0.41688985 0.59197843 -0.27220434
0.21496527 5.96028 0.78458774 1.8946395 0.45060608 0.13033906 0.33491275 1.0790861
-0.061120786 0.70666087 0.03411756 -0.099480934 1.1530951 0.3174075 1.1738927 0.8277389
1.0308394 0.11015192 2.0119185 0.040222675 5.3586354 0.4412865 -0.87474513 -3.2559366
3.2663136 2.770716 1.1722809 0.1879588 2.80127 3.3788898 -0.23142847 3.2032745
3.4587047 -0.11396701 1.0677894 0.43669346 0.16865842 0.9514733 0.44772032 0.14944166
0.07719115 2.764799 0.1896744 2.6794298 0.41620877 0.50671744 6.452995 0.61546916
0.7068861 -1.5029147 0.55174834 0.16816132 0.057089295 -1.7996505 7.010527 0.7044941
12.647763 3.141936 0.17467014 0.14628752 -0.5946293 2.7805727 -0.23644584 -0.13716565
3.4919426 0.14471221 0.59537214 0.20642045 1.7947415 0.93659 1.5937936 0.5231919
1.3512087 -8.468002 0.23597708 -0.06364124 0.9086752 0.61306477 0.5017847 4.88623
1.3446014 -0.033242177 1.1255031 0.087127276 0.52897805 -0.019432481 1.4528977 -11.163141
1.3600612 1.887047 -8.185648 0.0146780955 5.996697 0.73655 -1.6683837 2.4265451

lstm.weight_hh_l0 f4 [32, 8]
00000000: aabd 38be 5a19 27be f661 7f3e 14b4 e1bd
00000010: acf3 60be d029 873c 3812 643d c176 a3be
00000020: 431e b03e 5070 e3bc 5895 b73d e08b c4bc
00000030: e04c 49bd bdef 62be 40b4 b03d 1823 75be
00000040: c877 04bd 8fad 8f3e b6c5 64be 6aa8 85be
00000050: c89a ba3d af5a 81be 0be7 40be f69f 3c3e
00000060: 2ca3 863d f01c adbc e8df abbe 98fa 843d
00000070: 6662 453e b8b9 bb3d c017 8fbd 0748 8e3e
00000080: d23e 96be 62cc 5d3e 8070 1d3b 9815 2a3d
00000090: 41dc 853e 841c 093e 887e a23d c103 913e
000000a0: d43a 95bd bcb8 91be 0459 99be c853 533d
000000b0: 50d6 1fbd 991f 853e 00a6 07bb 5dfb 59be
000000c0: 61ad 27be 1caf 41be be2c 6c3e 68bb 36bd
000000d0: b004 de3d 78bb c3bd 3639 253e 731f a7be
000000e0: f0d5 8cbd c6ce 513e 4bce a6be e07f b6bd
000000f0: 2a0f 3cbe 0007 27be 4ac5 93be acae 063e
00000100: 50bd 9abd 7a7c 4a3e 1123 823e f485 153e
00000110: 80b0 35be f920 89be 9975 a73e 5f63 abbe
00000120: 56ef 533e 5642 98be 16ed 4b3e 683f 57be
00000130: 1a01 3a3e 30bf 9a3d cd6c 73be 7eb8 163e
00000140: d126 65be 5094 f93d 302d 7bbd 00ed 42bb
00000150: e02b 8dbc e75d b3be d7ea 973e e610 723e
00000160: d73a 9e3e fd2c 903e 5021 5cbd 63a0 aabe
00000170: e4f6 c6bd 80f1 3fbd 29b2 04be 3e0b 5f3e
00000180: 77e5 95be add8 9dbe fdfc afbe 716d 933e
00000190: 541a c43d 9a08 103e 868b 643e 2b8a 9ebe
000001a0: 8efd 773e 70e2 923d acfb 92bd e8c0 10bd
000001b0: e074 68bd 21fd 81be 1089 2cbd 46eb 503e
000001c0: 563e 023e 5a7c 683e 640e 49be 2d52 b0be
000001d0: acc6 b0be 866c 0ebe d64f 373e b539 9d3e
000001e0: 7f63 943e ba25 583e db07 9d3e a079 57bc
000001f0: 0032 bebd f0a7 48bd be4b 733e f837 0abd
00000200: 8a2b 413e 92fa 63be 9074 313d e968 ab3e
00000210: 3e8f 6e3e 30b7 9fbd 2ed3 563e 565f 9dbe
00000220: ce9c f8bd 1cf1 d23d 30a4 84bd 9cfe 99bd
00000230: 9e53 43be 10b0 91be 9043 7cbe c05c 78bd
00000240: c048 9f3b b73e acbe 623d b3be 0d9c 4cbe
00000250: e0bf 123c 78d1 6cbd 8096 7fbe c877 063e
00000260: ee74 733e 10b0 c4bd 1020 483d 8621 663e
00000270: 00a7 0e3b 0e54 79be 34cb 0bbe 10bb 913d
00000280: f2d0 79be 3893 50bd 904b 133d aa9d dabd
00000290: 403d 943d b4ec 9bbe 624e 4b3e 8e69 1d3e
000002a0: ff8f aa3e ac9c 9dbe 10ea d4bd d095 7dbe
000002b0: a866 86be 5e24 183e e4d5 c6bd e8a4 b63d
000002c0: 407b 47be 2450 aebd 98a3 6ebd bdbc 9e3e
000002d0: 1893 adbd 1a4b 113e 520f 6b3e af88 2cbe
000002e0: da36 7c3e 7c3a aa3d f8af 3e3d 5072 2d3d
000002f0: 143e c43d 12cf 003e 987e 153e 4990 8c3e
00000300: d0ae b1be 12b1 5f3e 1044 d73d c25c 6f3e
00000310: 1821 78bd 34c1 8cbd 81ea a33e 2624 1a3e
00000320: 2810 d6bd 5730 86be 7277 293e 28dd 55be
00000330: f407 dbbd 30d8 e53d c010 1dbd f2d9 d6bd
00000340: 9adf 353e 044e a4be d0c3 91bc 2039 bebc
00000350: 430d 88be ce3d 7e3e 7017 2cbe 4379 9d3e
00000360: 041f e63d a7d3 97be 3838 0cbd f892 983d
00000370: b3a6 953e ec7b b6bd 8010 1bbb 23f3 9d3e
00000380: ce33 5bbe da5d 723e 90f6 303d f05f 833c
00000390: 8d86 15be 3583 b1be 5eb8 3b3e 4a77 743e
000003a0: 75c8 a23e e4e7 a0be a0ca d8bc 74db 71be
000003b0: 58bd a2bd e02b c3bd 5a45 7a3e 636f 8b3e
000003c0: 888c 6e3d 59ec 9e3e 973f 75be eacb 45be
000003d0: b5b7 b23e 628e 26be 60b4 603d 4945 b0be
000003e0: 907c 90bd 382f 4c3d ced3 efbd b460 1fbe
000003f0: 2b6f b0be d7a0 8a3e b661 733e d070 80bd
-0.18041101 -0.16318265 0.24939713 -0.11020675 -0.21967953 0.01649943 0.055681437 -0.3192654
0.34398088 -0.027763516 0.08964032 -0.023992479 -0.04914558 -0.22161765 0.0862813 -0.23939168
-0.032340795 0.28062102 -0.22341046 -0.26105052 0.091115534 -0.252645 -0.18838136 0.18420395
0.06574091 -0.021131963 -0.33569264 0.064931095 0.19275817 0.091662824 -0.06986952 0.27789328
-0.29344803 0.21659997 0.0024023354 0.0415245 0.26144603 0.13389784 0.0793429 0.28323177
-0.07286611 -0.28461254 -0.29950726 0.051593572 -0.039022744 0.2600067 -0.002069831 -0.21287294
-0.16374733 -0.18914455 0.23063943 -0.04461232 0.10840738 -0.09557241 0.16135105 -0.3264118
-0.06876743 0.20489034 -0.32579264 -0.08911109 -0.1836516 -0.16311264 -0.28861457 0.1315257
-0.0755564 0.19774047 0.2541738 0.1460188 -0.1774311 -0.2678297 0.32706907 -0.33474252
0.20696768 -0.2973811 0.1991466 -0.21020281 0.18164483 0.07555997 -0.23771973 0.14718816
-0.22378089 0.121864915 -0.06132239 -0.0029743314 -0.017232835 -0.3503258 0.29671356 0.23639259
0.30904266 0.28159323 -0.053742707 -0.3332549 -0.097150594 -0.04686117 -0.12958588 0.21781632
-0.2927663 -0.30829373 -0.34372702 0.28794435 0.09575334 0.14065781 0.22318849 -0.3096479
0.24217817 0.07172096 -0.07176909 -0.03534022 -0.056752086 -0.25388435 -0.0421229 0.2040225
0.12719092 0.22703686 -0.19634396 -0.34437695 -0.34526575 -0.13908586 0.17901549 0.3070809
0.2898216 0.21108142 0.30670056 -0.013151556 -0.092868805 -0.048988283 0.23759362 -0.033744782
0.18864265 -0.22263554 0.043324053 0.33478478 0.2329683 -0.07798612 0.20978996 -0.30736798
-0.12139283 0.10299894 -0.06476629 -0.07519266 -0.19074866 -0.28454638 -0.24635148 -0.06063533
0.0048609674 -0.33641598 -0.3500777 -0.19981404 0.008956879 -0.057816952 -0.24959755 0.1313163
0.23775074 -0.09603894 0.048858702 0.22473726 0.002176702 -0.2434847 -0.13651735 0.071157575
-0.24396113 -0.05092165 0.035960734 -0.10674603 0.07238245 -0.30454028 0.1985412 0.15372297
0.33312985 -0.30783594 -0.103962064 -0.2476418 -0.26250196 0.14857623 -0.09708765 0.08918172
-0.1948061 -0.08511379 -0.058261484 0.3100337 -0.084753215 0.14188805 0.22955063 -0.16849016
0.24630299 0.08311936 0.046554536 0.042345345 0.09582153 0.12578991 0.14599073 0.2745383
-0.34703684 0.2184489 0.10511029 0.23375228 -0.060578436 -0.06872788 0.3201485 0.15052852
-0.104523 -0.26208755 0.16549471 -0.20885146 -0.10694876 0.11222875 -0.038346052 -0.104907885
0.17761078 -0.3209077 -0.017793566 -0.023220599 -0.26572618 0.24828264 -0.16805816 0.30756578
0.112363845 -0.29653665 -0.034233302 0.07449907 0.29228744 -0.08910355 -0.0023660958 0.3084956
-0.2140648 0.23668614 0.04320389 0.016036958 -0.14602108 -0.34670416 0.18332049 0.2387363
0.31793562 -0.31426919 -0.026463807 -0.23618871 -0.07946271 -0.09529853 0.24440518 0.2723342
0.05823949 0.31039694 -0.23950039 -0.19316068 0.34905782 -0.16265252 0.05485952 -0.3442786
-0.070550084 0.04984972 -0.117103204 -0.15564233 -0.34459814 0.27075836 0.23767743 -0.06271517

lstm.bias_ih_l0 f4 [32]
00000000: d13d 793f 68a2 d73e 901c 653f d3e4 c23f
00000010: a096 9a3f 3f91 7d3f de41 0540 3d28 3340
00000020: 5e04 0abe 4cd4 8abe 779d 913e 3ac4 333e
00000030: 8f17 8e3e b038 b1bc 8a81 2bbe acd6 42be
00000040: 1e94 923d d6c6 ad3c 44c1 313b 7dfa 0dbe
00000050: 1951 863e 4b31 c8be b239 d73e 08e7 ad3e
00000060: 6323 823f bd28 ad3f 8259 a63f e58b 0040
00000070: 24cc be3f f211 d43f 53d1 0a40 8e86 713f
0.9735995 0.42116094 0.8949671 1.5226082 1.2077217 0.9904975 2.0821452 2.799331
-0.13478228 -0.27115095 0.2844045 0.17555323 0.2775235 -0.021633476 -0.16748634 -0.19027203
0.07157157 0.021212976 0.0027123252 -0.13865085 0.26233748 -0.39100108 0.42036206 0.33965325
1.0167049 1.3528057 1.2996066 2.0085385 1.4906049 1.6567976 2.1690261 0.9434594

lstm.bias_hh_l0 f4 [32]
00000000: 4bb6 a13f c849 463f 6505 013f fda2 c43f
00000010: 1285 d63f 9d41 063f 1061 0b40 bb36 1b40
00000020: 4e5d 393e f2df 593e 3649 133e 3ba9 52be
00000030: 387c b33d 6c23 f0bd 3c51 b8bd 7b17 b1be
00000040: d6d1 2e3e 12fb ecbe 7fe8 f23e c52e b3bd
00000050: 4ac2 083f 6b5a 4dbe b2d4 1e3e 33cc 033f
00000060: cd6a 803f ab78 c43f 2096 b53f 4a1b dc3f
00000070: e02d ec3f 931e 0c40 dfa3 0a40 8c0c 753f
1.2633756 0.7745633 0.50398856 1.536224 1.675936 0.5244387 2.1777992 2.4252155
0.18101999 0.21276835 0.14383397 -0.20572369 0.08763927 -0.11725506 -0.08999869 -0.34588227
0.17072234 -0.462853 0.47443005 -0.08749155 0.5342146 -0.20054023 0.15510824 0.5148346
1.0032593 1.5349325 1.418644 1.7195828 1.84515 2.189366 2.166252 0.9572227

lstm.weight_ih_l0_reverse f4 [32, 511]
00000000: 2393 0f3e d71d 373e c44d 8f3d 18c5 eb3e
00000010: 8b49 9bc0 52ea 9f3e b20a 2340 9533 d03f
00000020: 797f cf3e a81c a53f cddc a1be 47ba 1c3e
00000030: 8daa f93f fb38 dd3e acba 9abe c0c9 4b3e
00000040: 2b93 bdbe d333 453e e501 80c1 4b42 233f
00000050: f668 e1bf 9558 1c40 1027 cb3e c88f 4fbf
00000060: 6e27 343f 3724 a840 2702 8e40 e9bc f43e
00000070: 452d c83f c285 013f d802 f63d ffd3 903f
00000080: fedf d43e 3a9a 6040 6a1a ef3d dced c33f
00000090: 28d1 2040 4268 5abd 8944 a240 47f3 4440
000000a0: 4207 263f 4dba 15c1 64a6 8a40 7d1c 573f
000000b0: 18e6 c240 0cbc dd3f a36f 2040 2a8d b4bf
000000c0: e7f4 a440 fa1e 7540 26e4 0340 b4f7 0c40
000000d0: 6916 19bf 2b22 1bbf cf64 5f40 de84 2f40
000000e0: 3564 cec0 534b 6e3e f9a6 1c3e 35eb f33e
000000f0: 8f89 a03e fe31 d03f 4a52 603e 2bbd a93f
00000100: 0da4 863e cb6f a83e 6dcb e43d a556 68bd
00000110: 62c4 223f c78d 9040 b1bb 963f e67c b43f
00000120: 126b 3640 5d40 203f 3a53 f43e ff05 3d40
00000130: a108 163f cc55 923f 9b5b 86c0 3e4f 78bd
00000140: 0aa3 c53e 365b 053f c001 7f40 6e00 82be
00000150: 0764 aebf 6caa fcbf cb93 eabc 17b9 be3f
00000160: bc49 053f 508e f9bd d5ab 453f 535f 0a40
00000170: 78a1 5440 7605 1d3f 613f c0be 42fa e93e
00000180: 8eb2 da3e 00e0 9b3f 1f03 ef3f 581f f63d
00000190: 597b a33f 4d0c fc3f 6bb8 083e 5678 6840
000001a0: fb21 473f 00ac 1b3f d07b 9e3e d99e d03e
000001b0: 7adf 493f a617 a63e 31fe 7e40 63e3 c93e
000001c0: 3972 623e ff5e 5440 2a1c 0140 482b 363f
000001d0: 2b93 ab3f 9a59 883d 7662 a33e f5f2 a63f
000001e0: 5c06 043f 21f7 df3e d33e 0abe 1dbe 5f40
000001f0: 3a4f 4440 8508 9a3f ea53 083f 5fe6 1740
00000200: b402 af3e 4109 c53d 1f04 743e 1332 15be
00000210: 0650 c840 78a5 1040 67b0 343f 928a 8a3e
00000220: fb68 b740 0f0c acbf 2461 163e 9f76 8f40
00000230: bc18 1f3e 7c20 bb3e 3e6c 0e3f 1561 233f
00000240: a6ca aac0 389f ef3e 7cd1 7abd 1e79 ea3f
00000250: 4145 ba3f 72ea 3440 63ca 8c40 bcc3 b33f
00000260: 9902 2740 2bf3 c43e b80e 673e a071 b63f
00000270: 65b3 043f 7db3 fa3e b407 a33f 5538 ba3f
00000280: 5269 24bd 2ba4 af40 cbec 2e3f b7ef 5440
00000290: 46cf 213e b738 1cbf 4ade 033f 6776 bebe
000002a0: 8b25 7040 980e 063f c961 67bd f8a4 493e
000002b0: 3ab9 cd3d ca3a 803d fba9 a23e 8b8b b13d
000002c0: 840c ce3e 4da4 56be 8d0a 1a3f 6932 c43e
000002d0: ed26 0640 bcae 2b3f 2ba8 a93f d195 80c0
000002e0: ddf2 2f40 d054 f53f fd9c 9f3f 4314 163f
000002f0: 5b87 7840 58c8 a140 90ba 20c0 a764 493f
00000300: cc01 3240 451d 72be f663 8c3e 0948 843e
00000310: 124b cd3e 0a46 013f 990e 313f 4939 3a3f
00000320: 506a b43e c33c a33f 60e7 6fbd 6843 df3f
00000330: 3a39 fb40 7ec3 6f3f 3373 5840 41ef 5640
00000340: fba3 093f bdc1 1c40 3be8 363f f784 573e
00000350: c557 2d3e 001d 0c40 c31e 0141 54ce 0b3f
00000360: e957 6b40 0ba3 b440 34b6 f83c d183 a640
00000370: fbf7 193f 0f85 d53f 430c 503e 84a8 423f
00000380: 3783 d340 c1c4 4d3f 35f5 4340 8e50 3c3e
00000390: 597a 003f 5fb4 5bc0 189d 263f 5d1d 3240
000003a0: 5b86 b93f 482d bf3e dcc1 7e3e 5966 8d3f
000003b0: 37fb 313f 863d ff3d 5b39 9c3e ac5d ce40
000003c0: 425d af3f 4f1b 083c 0104 703d 698e 1c3f
000003d0: 5f4d 153f f611 073f c857 05c0 275e 0c40
000003e0: 4c8b 0740 021f 563f 5565 c840 3868 a33d
000003f0: 9dc4 9740 76ce 0e3f b4c8 ae40 2851 0340
0.14020972 0.17882477 0.069972545 0.46048808 -4.8527274 0.3123346 2.5475278 1.6265742
0.4052694 1.289937 -0.3161377 0.15305434 1.9505173 0.43207535 -0.30220544 0.1990118
-0.37026343 0.1925805 -16.000925 0.6377303 -1.7610157 2.4429066 0.3967824 -0.8107877
0.70372665 5.2544208 4.4377627 0.47800377 1.5638815 0.50594723 0.12012261 1.1314696
0.41577142 3.5094132 0.1167496 1.5306964 2.512766 -0.053322084 5.070866 3.0773485
0.64854825 -9.357984 4.3328114 0.84027845 6.0905876 1.7323012 2.5068138 -1.410558
5.1548953 3.8300157 2.0608 2.2026186 -0.5979982 -0.6059901 3.4905279 2.7424846
-6.4497323 0.23270921 0.1529807 0.47640386 0.3135495 1.6265256 0.21906391 1.3260854
0.26297036 0.3289779 0.11171613 -0.056723256 0.63580906 4.517307 1.1776029 1.4100616
2.850285 0.6259821 0.47719747 2.953491 0.58606917 1.1432433 -4.1986823 -0.060622446
0.3860095 0.520923 3.9844818 -0.25390953 -1.3624276 -1.9739509 -0.028634926 1.4900235
0.52065635 -0.12185347 0.7721532 2.1620681 3.3223553 0.6133646 -0.37548354 0.45698744
0.4271435 1.2177734 1.8672827 0.12017697 1.2772018 1.9691254 0.133516 3.6323447
0.77786225 0.60809326 0.30953836 0.4074619 0.78856623 0.32439917 3.9842646 0.39431295
0.22113885 3.318298 2.017344 0.7115979 1.3404287 0.06657715 0.31911057 1.3042895
0.51572204 0.43743232 -0.13500528 3.4959786 3.0673356 1.203385 0.5325304 2.3734357
0.3418175 0.09620906 0.23829697 -0.14569883 6.2597685 2.2600994 0.7058167 0.27058846
5.731565 -1.344118 0.14685494 4.48323 0.15536779 0.3654822 0.55633914 0.6382001
-5.3372374 0.46801162 -0.061234936 1.8318212 1.4552385 2.8268094 4.3997054 1.4044108
2.6095335 0.38466772 0.22564209 1.4253426 0.51836234 0.48965064 1.2736726 1.4548441
-0.040139504 5.48879 0.6833007 3.327131 0.15801725 -0.6102404 0.5151106 -0.3719971
3.7522914 0.5236602 -0.05648974 0.19691837 0.10045095 0.06261213 0.3177031 0.08669194
0.40243924 -0.20961113 0.6017235 0.3831971 2.0961258 0.670635 1.3254446 -4.018288
2.7491982 1.9166508 1.2469784 0.58624667 3.8832614 5.055706 -2.5113869 0.7866921
2.7813597 -0.23643978 0.27420014 0.25836208 0.40096337 0.50497496 0.691629 0.7274366
0.3523736 1.2752918 -0.058570266 1.7442446 7.8507357 0.9365767 3.3820312 3.358353
0.5376584 2.4493248 0.71448106 0.21046816 0.16928013 2.18927 8.07001 0.54611707
3.6772406 5.6449027 0.030360319 5.203591 0.60144013 1.6681231 0.20317177 0.76038384
6.6097674 0.8037835 3.0618412 0.18390104 0.5018669 -3.432884 0.65083456 2.7830422
1.4494127 0.37339234 0.24878639 1.1046859 0.6952395 0.124629065 0.3051251 6.4489346
1.3700335 0.008307292 0.05859757 0.611548 0.58321184 0.5276178 -2.0834827 2.1932466
2.117877 0.83641064 6.2623696 0.079788625 4.7427506 0.55783784 5.462 2.0518284

lstm.weight_hh_l0_reverse f4 [32, 8]
00000000: 7cb4 99be 18ac 75bd 5c43 80bd 96e7 173e
00000010: a397 a13e 9087 f83d d0e3 61bd cf3e 81be
00000020: 9074 28be 5809 03be 6739 1bbe a565 acbe
00000030: 7f0d 973e 80af fd3c 2431 12be 5dce 8e3e
00000040: d8f4 21bd 0062 e8ba f2ad 87be 30f8 77be
00000050: 8b49 86be 001c c1b9 406f 91bd 86c0 283e
00000060: a3b2 1bbe 9b42 823e a000 de3c 9886 ca3d
00000070: 43c3 11be 002a 11bc 73a5 b3be c965 b4be
00000080: 755f 05be 3a5f d9bd 2425 95bd 688e 34bd
00000090: c09d 543d cabc 413e 14e1 55be 434a afbe
000000a0: 4af9 253e 3e82 43be 062f 7d3e a801 f93d
000000b0: 0883 b13d e0c4 2abe 261d 493e 70a6 b1bc
000000c0: 7286 223e 406d 2ebe 9077 febd 914b a73e
000000d0: 19e5 a8be 3af2 323e 62be 793e 2ef9 ddbd
000000e0: c467 babd 765f 87be 42e1 163e 00d6 15be
000000f0: 20da 293c 25e4 b03e 604a 9cbd 4cfa 99be
00000100: c07d 583d 8076 9a3d b2dd 3f3e e48e d43d
00000110: 345a 8bbd 543c 933d 5e6c 3e3e 942e 84bd
00000120: b383 37be 01ad 4fbe 86ac 213e 2486 923d
00000130: 31ca 9dbe 485b 0dbe b7e2 46be baf6 3a3e
00000140: fa8d 2c3e 08fc 123e 6439 6dbe fc3d 8ebe
00000150: c826 fd3d 109e 76bd 6def 9f3e ce8c 5b3e
00000160: 41f4 2cbe 3c01 98be 56a2 b4be 38d4 00bd
00000170: dfd6 6ebe 8070 9abd 0f15 8b3e 00ff 6fbd
00000180: 7702 b5be 6842 863d 9809 adbd 022b 8ebe
00000190: 80c8 523d c0c2 1cbe 7218 9ebe 1c55 08be
000001a0: 621a 5b3e 7250 633e 6dd2 9f3e 0f2e a43e
000001b0: ec67 f9bd be87 493e 05f8 873e 88a5 5ebd
000001c0: 0602 5f3e 80c2 67be e098 a43c d0dd d1bc
000001d0: 6135 943e 5664 4b3e 4870 81bd 4833 90be
000001e0: 885f 19bd 2c40 3dbe 16d4 293e b016 b2bc
000001f0: 4d5b a93e 2f0b 08be 1092 0b3e ef45 8c3e
00000200: 3df2 a93e c8e8 31be 96e3 8bbe 4802 70bd
00000210: 10d1 0e3e a246 2e3e 7841 013d 4011 d43b
00000220: eec8 683e 7c39 bfbd 9da9 a13e 76ef 93be
00000230: 2c32 cb3d e2d6 11be 4842 133d 5b76 a43e
00000240: 1231 5f3e 0054 063c e28b 683e d6d7 463e
00000250: fcc9 dc3d 1afd 623e 5350 af3e e602 753e
00000260: 6872 64bd e1e4 95be e211 413e 86a2 7c3e
00000270: 26cf 713e 3269 163e 438a 15be 6daf 9f3e
00000280: 40e5 e4bb d531 873e 8339 823e 30d1 803d
00000290: 8688 403e 0cd9 78be 0267 87be 0088 3139
000002a0: f2dd d6bd 30b5 993c 181e 71bd 92c4 363e
000002b0: f8e4 973d 399e 8c3e 40bd 5a3d 20d7 9fbe
000002c0: a07c cb3c 8884 5e3d 6540 69be 2e25 043e
000002d0: b4c6 073e 8bcd 94be 9cb5 0cbe a0f4 a3bd
000002e0: 1a13 d9bd d05d 9a3d a995 86be 40db eabb
000002f0: 22ee 9dbe 6dfe a83e 65fc b13e 4066 13bc
00000300: 8806 71bd 5032 cb3d fa2b 1e3e 3e12 753e
00000310: 259d 76be 4efd 773e c0a1 98bd 96cd 283e
00000320: 249d 81be 90c2 823d 7c11 1dbe 152e 843e
00000330: a00f 0abc f6e9 433e bed1 613e 862d 00be
00000340: ebef 943e 2e09 aabe ac31 883d 997a 813e
00000350: 6e88 5b3e 60bb b93c 70ff 28bd b454 73be
00000360: 5812 81bd 309a 8b3d d0d6 e7bc e86a ca3d
00000370: b6cd 523e eb71 57be e723 9c3e 0c1a 62be
00000380: 740f a3be 1a56 7e3e 83d1 09be 4c67 fabd
00000390: 9000 31be 9fdb 2bbe cab5 653e 3466 a7bd
000003a0: 6392 a83e c599 b43e 5371 963e 9aea 3c3e
000003b0: 6e31 8dbe c08a 093e 9807 063e 00fb cc3b
000003c0: ae58 203e 375a 95be 9c1f 94bd 5bea ac3e
000003d0: fd1d 6bbe 9018 1c3d a847 233d e3e1 a53e
000003e0: 309d babd 5ed3 5dbe 9501 87be 6e5a 4e3e
000003f0: c645 a9be 3d4a a43e 0bee a23e 13a0 86be
-0.3002051 -0.059978575 -0.06262848 0.14834437 0.31561002 0.121352315 -0.0551489 -0.25243232
-0.16450715 -0.12796533 -0.15158616 -0.336713 0.29502484 0.030967474 -0.14276558 0.27891818
-0.03954014 -0.0017729402 -0.26499897 -0.2421577 -0.26227984 -0.0003683269 -0.071012974 0.16479692
-0.15204863 0.2544144 0.027099907 0.09888953 -0.14234643 -0.008860111 -0.35087165 -0.35233906
-0.13024695 -0.10613866 -0.07282475 -0.04408112 0.051908255 0.18919674 -0.20886642 -0.34236345
0.16208377 -0.19092652 0.2472497 0.12158519 0.0866757 -0.16676664 0.19640025 -0.021685809
0.158716 -0.17033863 -0.124251485 0.3267484 -0.32987288 0.17475215 0.24389032 -0.10838543
-0.09101823 -0.26440018 0.14734367 -0.14632416 0.010366946 0.3454906 -0.076313734 -0.30073774
0.0528543 0.07542133 0.18736914 0.10378817 -0.06804314 0.07189241 0.18596026 -0.064541966
-0.17921333 -0.2028084 0.15788469 0.071544915 -0.30818322 -0.13804352 -0.19422422 0.18258181
0.16851035 0.14353955 -0.23166424 -0.27781665 0.123609126 -0.060209334 0.31237355 0.21440431
-0.1689005 -0.29688442 -0.35280102 -0.031452388 -0.23324154 -0.07540989 0.27164504 -0.058592796
-0.35353443 0.06555635 -0.084490955 -0.27767187 0.051460743 -0.15308666 -0.30878025 -0.13313717
0.21396783 0.22198656 0.3121523 0.3206639 -0.12178025 0.19680688 0.2655641 -0.05435708
0.21778116 -0.2263279 0.020092428 -0.025618464 0.28946975 0.19862494 -0.06320244 -0.28164124
-0.03744462 -0.18481511 0.1658481 -0.021739334 0.3307747 -0.13285516 0.13629937 0.27397105
0.33192626 -0.17373955 -0.27322072 -0.058595926 0.13946939 0.17019132 0.031556576 0.006471783
0.22732899 -0.09337136 0.31574717 -0.28893632 0.09921679 -0.14242128 0.035951883 0.32121548
0.21796063 0.008198738 0.22709611 0.19418272 0.10780713 0.22166863 0.3424097 0.23926887
-0.05577317 -0.29276183 0.18854478 0.24671373 0.23614177 0.14688566 -0.14603524 0.31188527
-0.0069853365 0.26405206 0.25434503 0.06289899 0.1880208 -0.24301547 -0.26445776 0.000169307
-0.104915515 0.018763155 -0.05886659 0.17848423 0.07416719 0.27464464 0.05340314 -0.31218815
0.0248397 0.05432561 -0.22778471 0.12904808 0.13259393 -0.29063067 -0.13741153 -0.08005643
-0.105993465 0.075374246 -0.26286057 -0.00716725 -0.30845743 0.3300661 0.34762874 -0.008996546
-0.05884412 0.09921706 0.15446463 0.2393274 -0.24083383 0.24217722 -0.07452726 0.16484675
-0.253152 0.06384766 -0.15338701 0.25816408 -0.008426577 0.19132218 0.22052667 -0.12517366
0.29089293 -0.3321013 0.06650099 0.25288847 0.21438763 0.022672355 -0.04125923 -0.2376278
-0.06302327 0.06816518 -0.028300673 0.09883672 0.20586285 -0.2103955 0.3049614 -0.22080249
-0.31847727 0.24837533 -0.13458829 -0.122267336 -0.17285371 -0.16782998 0.22432628 -0.081737906
0.32924184 0.35273567 0.29383335 0.18448868 -0.27576774 0.13431835 0.13088834 0.0062555075
0.15658829 -0.2917039 -0.072325915 0.3377255 -0.22960658 0.038109362 0.03986326 0.323989
-0.091120124 -0.21662661 -0.26368394 0.20151684 -0.33061045 0.3208789 0.31822237 -0.26294002

lstm.bias_ih_l0_reverse f4 [32]
00000000: d44a f93f e55e 1140 65f9 003f 4e47 423f
00000010: 4a87 a23f d132 e93f bc36 403f 9fbd 1840
00000020: 367e 743e c6ca 3bbe 0009 243d 8874 70bd
00000030: eabb 643e 5441 6abe 40cd b23c 18ce 80bd
00000040: 1176 cb3e 6b58 00be 6501 10bf ac9c 903e
00000050: da1d 3fbe 7fd7 e3be 09fd e83e 3cad 86be
00000060: 47a7 ab3f 10be fd3f 5f43 2e40 32c2 a93f
00000070: 481e 9e3f a47a 1740 95dd e03f 334b 8f3f
1.9475961 2.271417 0.50380546 0.7589005 1.2697537 1.8218633 0.7508352 2.3865736
0.2387627 -0.1833907 0.040047646 -0.058704883 0.22337309 -0.22876483 0.021826386 -0.06289309
0.39738515 -0.12533729 -0.5625213 0.2824453 -0.18663731 -0.44500348 0.4550555 -0.26304042
1.3410424 1.9823627 2.722862 1.3262389 1.2352991 2.3668604 1.7567621 1.1194824

lstm.bias_hh_l0_reverse f4 [32]
00000000: 542f e13f 1c03 fb3f fc0d 873f 94a7 173f
00000010: 2201 b03f 655c b03f ee57 803f dd82 0f40
00000020: a24c 5e3e 8052 433c 9074 903d 80b6 55bd
00000030: 8e46 773e 0730 923e a664 353e 128a 013e
00000040: 5631 823e a239 743e eecc 98be ce1d 36be
00000050: 2e2b 92be 7b71 edbe a5cd 943e 656d 21be
00000060: 1193 e73f 742b 0040 b97e 2c40 8263 4b3f
00000070: 45cd 803f 38c6 2840 37c8 0440 f3d0 c73f
1.7592568 1.9610324 1.0551143 0.5924008 1.3750346 1.3778197 1.0026834 2.2423623
0.2170892 0.011921525 0.070534825 -0.052176 0.24148008 0.28552267 0.17714176 0.12650326
0.25428265 0.2385011 -0.2984385 -0.17784807 -0.28548568 -0.4637564 0.29063144 -0.15764387
1.8091756 2.0026522 2.6952345 0.7944871 1.0062643 2.6370983 2.0747201 1.5610641

fc.weight f4 [111, 16]
00000000: 14b9 27c0 2398 debf 16d6 07c0 4805 cd3f
00000010: 44e5 91be 50ba f43f b585 96bd f105 c8bf
00000020: 7992 ff3f 6160 2b40 1d37 ff3e d745 0e40
00000030: b084 ba3f fd7e a1bf 454c b3bf 75cc ca3f
00000040: fb1d 18c1 5f87 3d40 3c67 b63e 94fc 263f
00000050: 604b 6dc1 ad95 eec0 3954 6ac0 9780 b83f
00000060: 3591 17c1 19cb a240 ab28 fcbe 7ab9 d040
00000070: e40e f73f fe47 fdc0 a814 48be 5eef 0ac1
00000080: 03a7 f73f 3706 92c0 20b3 c6c0 2936 00c1
00000090: d806 76c0 1175 db40 e172 6e40 d530 f1bf
000000a0: a0d6 b140 1e12 a240 baba 44c0 b48f 9040
000000b0: df9b e5bf 7c4e d240 2726 a040 46f4 44bf
000000c0: da3d 5740 1d60 b5c0 043d ccc0 5dc8 a2c0
000000d0: 1da9 b4c0 3a04 3540 5ec1 7bc0 4392 3ac0
000000e0: 1d0e bb40 2304 85c0 9b0d 9540 1e57 9540
000000f0: 1876 dd40 9b56 a140 b4b5 f2bf 2092 b7c0
00000100: f921 b240 481a e2c0 333b 88c0 3c05 e3c0
00000110: acab 673e a031 dfbf 5046 7ec0 d8ce 6a40
00000120: 3ec7 4d40 f925 d340 c0cc 6a40 d719 0641
00000130: f9a3 b340 2e3b 9f40 26b2 83be 89db 1f40
00000140: a4bd b83f c6af 6f3f 5e16 b83f 199b 2cc0
00000150: f49a 31c0 3892 a4bf 6c0a d6bf 2886 1dc0
00000160: 8ce9 1a3f 94fc cb3f 8826 01c0 4408 0e3f
00000170: 3371 92be 1344 39bf 0d36 bd3f 169e 7a3f
00000180: 2a07 2abf 47ae 29c0 2b5e 123d ab5f 17bf
00000190: fcc4 85bf 9673 183d b3f8 14c0 5cb4 36c0
000001a0: 96ae 72bf 1e47 04c0 98a8 abbf 70e7 4ebf
000001b0: 0d27 9fbf d6eb c6be fb6d cc3f 8c52 25c0
000001c0: 340d 0ac0 a648 abc0 9e5a 3fc0 d1a7 1040
000001d0: d56f 3a40 5ea5 05c1 a8ac d040 d1b3 3640
000001e0: de2a 9a40 bad2 943f fbc3 a7bf 4a1a fe40
000001f0: ae7b 0c41 a501 af40 82fb 5cc0 e353 6b40
00000200: 3e02 47bf 093a 03c0 a4cd 09c0 33d3 d43f
00000210: c8dd 02c0 fd86 d7bf 9b80 acbf eb5f fa3f
00000220: b96f 74bf e346 cd3f 1e86 e43e da2b d7bf
00000230: 12b2 c3bf f5e6 8ebe 697b f73f b443 f63f
00000240: 94e3 2c3f 43a0 5dbf 8fca 07c0 27fb 19be
00000250: ed03 1bc0 e7b6 f53f f74a 653e e088 0ec0
00000260: aa64 a7bf e72f 37c0 58f5 f63f 7ae2 fabf
00000270: f14f b13f d7b9 75bf 3123 d1bf 5bd2 5140
00000280: b5f1 ba3e 83df 85bd f851 e63f bd8d a33f
00000290: f2d7 b9bf e8a3 0940 19ad 0d40 3179 09c0
000002a0: 1189 e1be 8da7 f83e 21ef 303f a2fd 9dbf
000002b0: d4ec 5340 98af 03c0 8248 81bf 97bd 9f3e
000002c0: 392c 0a3f 785d fbbf 251a dd3f 81a3 103f
000002d0: f471 fa3f af55 0fbf 4c66 2fc0 9358 923f
000002e0: 918f 853f 14f3 dc3f 1cc8 ff3d d513 8e3e
000002f0: aab5 f5bf bb0e 1c40 393a 0fc0 9e08 263f
00000300: 6d36 f63c a0e7 53c0 e06f 0cc0 93e9 ae3d
00000310: 902e 463f 790d 9bbf 5aea 4640 acaa 803f
00000320: dba5 1ebf 9314 25bf 22a5 0e40 b2ef 9fbf
00000330: 6dab d9bf f83a 64bf 5e68 1ec0 e2d8 46bf
00000340: d8bf 3c3f 8f3d e93f 11f8 b13e e536 5fbf
00000350: e8e8 0d40 3012 d53f d074 1440 8770 e9bf
00000360: 4386 3e40 b95a a33f c9b4 76be c81f 5cbf
00000370: 6262 573f e6e0 43bf dbb6 8f3f e8bf 0cc0
00000380: feeb b73f 8925 ec3e 3d60 f9be 4513 2cc0
00000390: aaf7 58bf d413 343e ca4e c7be 66e8 dbbf
000003a0: 9ffa c03e b594 2740 ddac f73f cc83 123f
000003b0: 5e0a bbbf c618 51c0 ce5c d4bf 6104 3c40
000003c0: ee9d dbc0 ee7a b6c0 b15b 03c0 832b 823f
000003d0: db90 2f40 0816 a3c0 a7a3 4cc0 6650 92c0
000003e0: 9a6f 8040 b5b5 b83f f192 c140 3a0a e0bf
000003f0: 6208 8240 c8ac e040 4443 96c0 7a59 e1c0
-2.6206713 -1.7390178 -2.1224418 1.6017237 -0.28495228 1.9119358 -0.07349721 -1.5626813
1.9966575 2.6777575 0.49846736 2.2230127 1.4571743 -1.2616879 -1.4007651 1.5843645
-9.507319 2.9613874 0.35625637 0.65229154 -14.830902 -7.455771 -3.6613905 1.4414243
-9.472951 5.087292 -0.49249777 6.522641 1.9301419 -7.915038 -0.1953913 -8.683439
1.9347843 -4.5632586 -6.209366 -8.013223 -3.8441677 6.8580403 3.7257617 -1.8843027
5.5574493 5.0647116 -3.073897 4.517542 -1.7938193 6.5720806 5.0046573 -0.7693523
3.3631501 -5.6679826 -6.382448 -5.0869584 -5.6456437 2.828383 -3.9336772 -2.915177
5.845473 -4.156755 4.657911 4.6668844 6.9206657 5.041822 -1.8961701 -5.7365875
5.566647 -7.065708 -4.2572265 -7.094389 0.22624081 -1.7437019 -3.9730415 3.6688747
3.2152858 6.5983853 3.668747 8.381309 5.613766 4.975974 -0.25721854 2.4977744
1.4432874 0.93627584 1.4381826 -2.6969664 -2.7750826 -1.2857122 -1.672193 -2.4613132
0.60512614 1.5936456 -2.0179768 0.5548136 -0.2860199 -0.723695 1.478212 0.9789747
-0.6641718 -2.651262 0.035734337 -0.5913035 -1.045074 0.037219606 -2.3276794 -2.8547583
-0.94797647 -2.0668406 -1.3410826 -0.80821896 -1.2433792 -0.38851804 1.5971063 -2.5831633
-2.1570559 -5.352618 -2.9899058 2.2602427 2.9130757 -8.352873 6.521076 2.8547251
4.817733 1.1626809 -1.3106683 7.940709 8.780195 5.4689507 -3.4528508 3.676995
-0.77737796 -2.0504172 -2.1531763 1.6626953 -2.0447865 -1.683807 -1.3476747 1.9560522
-0.95482975 1.6037258 0.44633573 -1.6810257 -1.5288718 -0.2791058 1.9334537 1.9239411
0.67534757 -0.86572665 -2.1217382 -0.15037213 -2.4221146 1.9196442 0.22391878 -2.2271042
-1.3077595 -2.8622987 1.9293623 -1.9600365 1.3852521 -0.95986694 -1.6338865 3.278464
0.36512533 -0.06536772 1.7993765 1.277763 -1.4519026 2.150629 2.21369 -2.148022
-0.44049886 0.4856533 0.6911488 -1.2343028 3.3113298 -2.0575924 -1.0100253 0.31199333
0.5397373 -1.9637899 1.7273604 0.5649949 1.9566026 -0.5599012 -2.7406187 1.1433281
1.0434438 1.7261682 0.1248934 0.27749506 -1.9196064 2.438399 -2.2379286 0.648569
0.03005525 -3.3110123 -2.1943283 0.085406445 0.774148 -1.2113487 3.1080537 1.0052085
-0.61971825 -0.6448452 2.228829 -1.2495024 -1.700544 -0.8915248 -2.47512 -0.77674687
0.7373023 1.8221911 0.34759572 -0.8719314 2.2173405 1.6646175 2.3196297 -1.8237466
2.9769447 1.2762061 -0.24092402 -0.85985994 0.84134495 -0.7651504 1.1227678 -2.199213
1.4368894 0.46122387 -0.48706236 -2.688676 -0.84752905 0.17585689 -0.389273 -1.7180297
0.3769121 2.6184514 1.9349629 0.57232356 -1.4612539 -3.267137 -1.6590822 2.9377673
-6.8630285 -5.702506 -2.0524714 1.0169529 2.7432163 -5.0964394 -3.1974885 -4.5723143
4.013623 1.4430453 6.049187 -1.7503121 4.0635233 7.0210915 -4.695711 -7.0421724

fc.bias f4 [111]
00000000: 2998 56bd f7c3 ccc1 52cf 9fc1 7d49 a3c1
00000010: e17c b1c1 87ad f0be 5d34 be3e 84b3 afc1
00000020: 1ae7 1abf 9b35 1ebf 2c4e 4b3e 4f51 6bbe
00000030: 86fa 983d 1ed0 afbd 07d8 733f 4523 b3c1
00000040: b926 e2c1 567c b9c1 8c31 053f c33a 03bf
00000050: 0aa9 35bf 033f 0a3e 904f 423e a47e b4c1
00000060: 367c a1c1 b1e1 26be 7ef2 b8c1 3b8a f0c1
00000070: b421 ab3d 4995 94bf 5a3a f53e 2537 abc1
00000080: 4b01 dac1 c359 03c2 13fc 3ebf 7e6a 4ebe
00000090: e301 2ebd 23db 583f a322 31be 3ae0 a2c1
000000a0: 5468 16bd 7144 dfbe 730a 94c1 7958 ecbe
000000b0: 7b4c 92c1 22ee 913c 6cc7 b6be 3a3e aec1
000000c0: 6da2 b1c1 0e40 28bf 39bf 9ebe c2e3 21bf
000000d0: c1b1 463f 032e 98c1 6946 8f3d df64 73be
000000e0: a2c5 50be 1723 dc3d ee26 2fbe b19f a0be
000000f0: 1703 9bc1 0515 a3c1 0c1e cb3e 9282 80be
00000100: bea1 9bc1 2a79 3ebf ef67 18bf 71b6 213f
00000110: 2ccc a4c1 cce3 683f 0c9e e63d 876e 853d
00000120: 994d 9fc1 1d6b b83e 69ec bcc1 c35e 1bbf
00000130: 9c91 273f d802 f73e e176 1e3e 087d a1c1
00000140: 1355 a2c1 9699 8c3f 4da1 b2be 7bf9 61bf
00000150: b95a 7f3e 711d 143e c33f af3d b708 ca3b
00000160: db49 8bc1 7381 2abd a773 423e b4e1 3e3f
00000170: 76b1 563d 8073 d8c1 f5cf 06be 47c3 ccc1
00000180: 4aca ef3f a4d3 00be 3ecf 953e bf2e a0c1
00000190: 6cba 19c1 0b0c 8ec1 8b62 8ac1 54cb 9ac1
000001a0: b04e a1bd cf63 91c1 7063 a7c1 f920 a5c1
000001b0: b0d0 f93e 7f4c a0c1 105c 95c1
-0.052391205 -25.595686 -19.97623 -20.410883 -22.185976 -0.4700739 0.37149325 -21.962654
-0.60508883 -0.61800545 0.19854039 -0.22980236 0.074696586 -0.08584617 0.95251507 -22.392221
-28.268908 -23.18571 0.5202873 -0.5126154 -0.7096106 0.135006 0.18975663 -22.561836
-20.18565 -0.16297032 -23.118404 -30.067495 0.08356038 -1.1608058 0.4789608 -21.401926
-27.250631 -32.837658 -0.74603385 -0.20157811 -0.042482268 0.84709376 -0.17298369 -20.359486
-0.03672059 -0.43606904 -18.505102 -0.4616125 -18.287344 0.017813746 -0.35699022 -21.780384
-22.20431 -0.6572274 -0.31005266 -0.63238156 0.7761498 -19.022467 0.069958515 -0.23768948
-0.20387891 0.1074888 -0.17104694 -0.31371835 -19.376509 -20.385263 0.3967136 -0.25099617
-19.453976 -0.7440363 -0.5953359 0.6316901 -20.599693 0.9097259 0.11260614 0.06515222
-19.91289 0.3601922 -23.615435 -0.6069147 0.6545656 0.48244357 0.15475036 -20.18605
-20.29154 1.0984371 -0.34888688 -0.882713 0.24936952 0.14464356 0.085570835 0.0061655897
-17.411062 -0.04162736 0.1898943 0.74563146 0.052415334 -27.056396 -0.13165267 -25.59535
1.8733609 -0.12580734 0.29259676 -20.022825 -9.608013 -17.75588 -17.298117 -19.349281
-0.078763366 -18.173735 -20.923553 -20.6411 0.48792028 -20.037352 -18.669952
