chatbot/NeuralNet.pth (torch, 32807 bytes, 6 tensors)

l1.weight f4 [8, 512]
0	0xbd953bfb	-0.07286831
1	0x3f07d056	0.5305227
2	0x3f0c6eaa	0.5485636
3	0xbd1d9516	-0.038472258
4	0xbf37bc98	-0.71772146
5	0x4081022e	4.031516
6	0xbc40e330	-0.011772916
7	0xbfc66269	-1.5498782
8	0x3e8752a3	0.26430234
9	0x3ec7e075	0.39038435
10	0x3fb266b8	1.3937597
11	0x3fced352	1.615824
12	0x404b7e0c	3.1795683
13	0x40654006	3.5820327
14	0x3f05a600	0.5220642
15	0x3f3d82c3	0.7402765
16	0xbdbadc26	-0.09124021
17	0x40180600	2.3753662
18	0x3ff0c9df	1.8811606
19	0xbfa4dff8	-1.288085
20	0x4024fc36	2.5778937
21	0xbeb0194b	-0.34394297
22	0xbf72eb7f	-0.9489059
23	0x3f5f412c	0.8720882
24	0x3f478707	0.7794041
25	0x405b105f	3.4228742
26	0xc08f73b4	-4.482874
27	0x3f7d4613	0.9893505
28	0x4020b6c4	2.5111551
29	0x3f5b9502	0.8577424
30	0xbf99276a	-1.1965153
31	0xbf6c1143	-0.9221384
32	0x404db570	3.214199
33	0x400e5727	2.2240694
34	0xbfa01f00	-1.250946
35	0x3f936c08	1.1517344
36	0x3fc4bf34	1.537085
37	0x3e501660	0.20321035
38	0x4006ef02	2.1083379
39	0xbf76725f	-0.96268266
40	0xbf4c148c	-0.7971885
41	0x3f2a8b6b	0.66618985
42	0xbfcee6da	-1.61642
43	0x3fd13db2	1.6346953
44	0xbf7eec87	-0.9957966
45	0xc076c62d	-3.8558457
46	0x3ef1b39b	0.4720734
47	0x3ed12d56	0.408549
48	0xbf782243	-0.9692728
49	0x4036ed55	2.8582356
50	0x3ce39da3	0.027785128
51	0x3e652cdc	0.22380394
52	0x3f4b721f	0.7947101
53	0xbf89074f	-1.0705355
54	0x401866a0	2.3812637
55	0x3d80ebae	0.06294952
56	0x400c4ce2	2.1921926
57	0x40313cef	2.769344
58	0x3db8e53c	0.09028098
59	0xbf7b6d8e	-0.9821404
60	0xbdc374b1	-0.095437415
61	0x3fe8a1c4	1.8174367
62	0xbf448008	-0.7675786
63	0xbeb15d86	-0.34641665
64	0x3f007682	0.5018083
65	0xbf0cfb11	-0.55070597
66	0x3eae3c36	0.34030312
67	0xbf9c748f	-1.2223071
68	0x3f06fc01	0.5272828
69	0x3dc2deed	0.09515176
70	0xbf48fc4d	-0.7850998
71	0x40323b43	2.784867
72	0x3f09a57b	0.5376813
73	0x3e93e1a1	0.2888308
74	0xbdbe327d	-0.092869736
75	0x3fcc6c30	1.5970516
76	0x3fceb34f	1.6148471
77	0xbeda0937	-0.42585155
78	0x3f6702be	0.9023856
79	0x3f8ecb78	1.1155844
80	0xbec26f93	-0.3797575
81	0x3fd705e8	1.6798677
82	0xbe3ac011	-0.1823733
83	0x3f878688	1.0587931
84	0x3e91884d	0.28424302
85	0x3f281df3	0.656707
86	0xbee007da	-0.4375599
87	0xbf7d1a0a	-0.9886786
88	0xbf9abff5	-1.2089831
89	0xbf3527a2	-0.707636
90	0xbee36e9b	-0.44420323
91	0x3f5f54b6	0.87238634
92	0xbe8e66ef	-0.27812907
93	0x4034e833	2.8266723
94	0xc06c6290	-3.6935158
95	0xbde71f6c	-0.1128529
96	0x403967b3	2.8969543
97	0x3f5cd02f	0.8625516
98	0x3ef3c0b8	0.4760797
99	0x3f8a93e6	1.0826385
100	0xbf04016b	-0.51564664
101	0x40b3d50f	5.619758
102	0x3f4983c6	0.78716695
103	0x401143f9	2.2697737
104	0xbe65cc97	-0.22441326
105	0xbfe9d0cc	-1.8266845
106	0xc03110e8	-2.7666569
107	0xbf8d6f11	-1.104952
108	0x4042194e	3.0327945
109	0x40027751	2.0385325
110	0xbf4908f1	-0.7852927
111	0x3f21cf0a	0.6320654
112	0x3e8fd4f1	0.2809215
113	0x40215e3a	2.5213761
114	0x3f7c0bba	0.98455393
115	0x3fc0dede	1.5068014
116	0x3f316284	0.6929095
117	0xbe7bc3b7	-0.24586378
118	0xbfc40b32	-1.5315917
119	0x3edbdaa1	0.42940238
120	0x3f477eeb	0.77928036
121	0x3fc10d3c	1.5082164
122	0xbd11d267	-0.035601046
123	0x3fb3e5cc	1.4054503
124	0xbf94aaaf	-1.1614588
125	0x3fcacd2e	1.5843866
126	0xbe8b9d11	-0.2726827
127	0xc00099e5	-2.009393
128	0xbe988f1e	-0.2979669
129	0x3fc9192e	1.5710809
130	0xbf48e13c	-0.7846868
131	0xbfb997f5	-1.4499499
132	0x3f12f5d7	0.5740637
133	0xbef6bd0a	-0.481911
134	0xbf3cdebd	-0.7377737
135	0xbe8bfbfd	-0.2734069
136	0x4068a4c2	3.635056
137	0xbf90f43e	-1.1324537
138	0x3f8ecdec	1.1156592
139	0xbf46348b	-0.77423924
140	0xbe86e2f5	-0.2634503
141	0x3fc2ff81	1.5234224
142	0xbf792171	-0.9731665
143	0xc015b154	-2.3389482
144	0xbf2cbc96	-0.6747526
145	0xbd8305de	-0.063976035
146	0xbf2b6ad0	-0.6695986
147	0xbcea7ffa	-0.028625477
148	0x3d72ad5c	0.05924736
149	0xbd5e3fcf	-0.05426007
150	0x3fd68d37	1.6761845
151	0x40112747	2.2680223
152	0xbf5bc3d8	-0.8584571
153	0x3e6185c6	0.22023687
154	0x4039e0d9	2.9043486
155	0x3f911e60	1.1337395
156	0xbfd6141f	-1.672489
157	0x3fc0863f	1.5040969
158	0xbe92837f	-0.2861595
159	0x3f69db78	0.9135051
160	0x3f82e211	1.022524
161	0x3fdad006	1.7094734
162	0x3f378573	0.71688
163	0x3ef1f596	0.4725768
164	0x3fc27390	1.5191517
165	0xbecd6309	-0.4011462
166	0xbf2e0e3e	-0.6799048
167	0x3e8d14a8	0.27554822
168	0x3f839352	1.0279334
169	0x3f670b17	0.90251297
170	0x3f1fac83	0.62372607
171	0x400c3ac8	2.1910877
172	0xbf4fdc32	-0.81195366
173	0x3e8969d6	0.2683856
174	0x3f8e16f8	1.110076
175	0xbf0d55b4	-0.552089
176	0xbeeb5401	-0.45962527
177	0x400ec9e5	2.2310727
178	0xbe81453e	-0.2524814
179	0x40762bbe	3.8464198
180	0xbf720d78	-0.945518
181	0x3fc0d7e0	1.506588
182	0xbf7771e2	-0.96658146
183	0xbf0c3fd8	-0.5478492
184	0x3d855604	0.06510547
185	0x3fa40135	1.2812868
186	0x402bb3f4	2.6828585
187	0xbef6484f	-0.48102042
188	0xbe409433	-0.18806534
189	0x4015d895	2.341344
190	0x3fe9c85d	1.8264271
191	0x3deec01b	0.11657735
192	0xbe1bcef3	-0.15215664
193	0xbe33a33c	-0.17542738
194	0x3ff0860f	1.8790911
195	0x400e5288	2.2237873
196	0x3f0aa42a	0.54156744
197	0xbf73b744	-0.95201516
198	0x400e169d	2.2201302
199	0x400ea9e6	2.2291198
200	0x400f7d60	2.2420273
201	0x3f1df99e	0.6170901
202	0x4007048e	2.109653
203	0x4015f995	2.3433583
204	0xbf735991	-0.9505854
205	0x4032d34a	2.794146
206	0x4001f992	2.0308576
207	0x40734970	3.8013573
208	0x3f223177	0.6335673
209	0x3f7a30a8	0.97730494
210	0xbd79388a	-0.060844935
211	0x3f2575ad	0.64632684
212	0x3f380db3	0.71895903
213	0x401603cb	2.3439815
214	0xbd856386	-0.06513123
215	0x3e71864b	0.23586385
216	0x40510128	3.2656956
217	0x3fb7f268	1.4370852
218	0x4013c6f2	2.3090177
219	0x3fc724bc	1.5558085
220	0x3f628df1	0.88497835
221	0x3fa5d0c7	1.2954339
222	0xbf3d51ce	-0.7395295
223	0x3f8ddffb	1.1083978
224	0xbe992cce	-0.29916996
225	0x402f9851	2.7436717
226	0x3e8c2765	0.27373806
227	0x40933df1	4.601311
228	0x3f1b722c	0.6072109
229	0x3fe8bc84	1.818253
230	0xbedcf82c	-0.4315809
231	0x3f6e53ae	0.93096435
232	0x3f9509b1	1.1643583
233	0xbf8b461a	-1.0880768
234	0xbd94370f	-0.07237064
235	0xbe513b08	-0.20432675
236	0x3f0ba3d3	0.5454685
237	0x3f13328c	0.57499003
238	0x40298be4	2.6491632
239	0xbd81a07c	-0.06329438
240	0x3fc2a3c5	1.5206228
241	0xbfb1542d	-1.3853813
242	0xbd2ad400	-0.041706085
243	0x3fd4ba83	1.6619419
244	0x3fa73722	1.30637
245	0x3fb40130	1.4062862
246	0xbd5147a1	-0.0510937
247	0x3fcc0f1f	1.5942115
248	0xc050cc20	-3.2624588
249	0xc00e2e92	-2.2215924
250	0xc02f1425	-2.7356045
251	0x4026836b	2.601771
252	0xbf336121	-0.7007008
253	0xbfadd9fe	-1.3582151
254	0x3f926c8c	1.1439376
255	0x3f8df47b	1.1090235

l1.bias f4 [8]
0	0x3f7787ea	0.96691763
1	0x3f39f9f3	0.7264702
2	0x3f88214d	1.0635163
3	0x3f4e3622	0.8055135
4	0x3f5040fc	0.8134916
5	0x3f4a93b0	0.79131603
6	0x3f7759fd	0.96621686
7	0x3f915c22	1.1356242

l2.weight f4 [8, 8]
0	0x3f9afd2e	1.2108514
1	0x405a26d9	3.408621
2	0xbfc4ffdc	-1.5390582
3	0x400ca4f8	2.197569
4	0xbf8c8d39	-1.0980598
5	0x3f040540	0.5157051
6	0x3fca299f	1.5793952
7	0xbeb48fdd	-0.3526601
8	0x3f9b8f5a	1.2153122
9	0xc00864e2	-2.1311574
10	0x3e7d83a3	0.24757247
11	0x404f5a13	3.2398727
12	0xbfe28597	-1.7697018
13	0xbf039c2f	-0.5141019
14	0x3f6e5fe4	0.9311507
15	0x40972786	4.7235746
16	0x4071ad72	3.7762113
17	0xbfdd6d8d	-1.7299057
18	0x3f4c5ed4	0.79832196
19	0x3fa8e396	1.3194454
20	0x3f83a09b	1.0283388
21	0x402ad93b	2.6695087
22	0xbf413e77	-0.7548594
23	0xbff1d643	-1.8893512
24	0xbff2c72b	-1.8967031
25	0x40254a5c	2.5826635
26	0xbf93e24f	-1.1553439
27	0x3f95c6a0	1.170124
28	0xbf1adf2e	-0.60496795
29	0x4058407d	3.378936
30	0x3f5db52f	0.8660459
31	0x3eb0bc67	0.3451874
32	0xbfef758d	-1.8707749
33	0x3f74868e	0.95517814
34	0x40316353	2.7716873
35	0xbfbc4535	-1.470862
36	0x402002cb	2.5001705
37	0x404c303b	3.1904438
38	0xbf9afdf7	-1.2108754
39	0x3ffdd3be	1.9830244
40	0x4004834e	2.0705142
41	0x400cac9f	2.198036
42	0xbf16d700	-0.58921814
43	0x3eef3be3	0.46725377
44	0x4001181c	2.0170965
45	0x3fa335d8	1.2750807
46	0xbfbee0fe	-1.4912412
47	0xbe85e406	-0.2615053
48	0xbfe21665	-1.7663084
49	0x3fe0477a	1.7521813
50	0x3f62dd7c	0.8861921
51	0x400bf411	2.1867716
52	0x40a80417	5.2504992
53	0xbfb554b5	-1.4166476
54	0xbd5ad1f1	-0.053422872
55	0xbf0cf201	-0.5505677
56	0x3ff5cb88	1.9202738
57	0x3fe77b35	1.8084475
58	0x405c6216	3.4434867
59	0xbfbed3f2	-1.490843
60	0xbef8aa40	-0.4856739
61	0xbfbb943c	-1.4654613
62	0x4089e68f	4.3093944
63	0xbf8f7469	-1.12074

l2.bias f4 [8]
0	0x3b1a7446	0.002356784
1	0x3f34ce62	0.70627415
2	0x3f823b43	1.0174335
3	0x3ee28bcb	0.4424728
4	0x3ed08312	0.40725
5	0xbfde1252	-1.7349341
6	0x3f9049da	1.1272538
7	0x3ebf420c	0.37355077

l3.weight f4 [111, 8]
0	0xbe085a14	-0.13315612
1	0xbf8e710e	-1.1128252
2	0xbe9b6e14	-0.3035742
3	0xc0efae26	-7.4900084
4	0xbe90b9c9	-0.28266743
5	0xbfccc4c5	-1.5997549
6	0x3f1b2799	0.60607296
7	0x3f238a82	0.6388322
8	0x3fb9006f	1.4453257
9	0xbed81f4d	-0.4221138
10	0x3eaacea7	0.33360788
11	0xbeeae0bd	-0.45874587
12	0xc124312f	-10.262008
13	0xbf1e08a5	-0.6173194
14	0x3f6ad4a3	0.9173071
15	0xc05bae64	-3.432519
16	0x3f08cc46	0.53436697
17	0x3f2176c0	0.63071823
18	0xbf85807b	-1.0429834
19	0x3e1a6a83	0.15079693
20	0xc0f35a46	-7.6047697
21	0xc0121e7f	-2.2831113
22	0xc10c8120	-8.781525
23	0xbc94168f	-0.018077163
24	0xbf256f22	-0.646227
25	0xbe34ee92	-0.17669132
26	0x3fb359ac	1.4011741
27	0xc0736759	-3.8031828
28	0xc0ee42c0	-7.445648
29	0xbf0f9f70	-0.5610266
30	0xc1090a23	-8.564975
31	0x3f4cc6f4	0.7999108
32	0xbe9cdf4b	-0.3063911
33	0xbfd389b6	-1.6526401
34	0xbe977d3d	-0.29587737
35	0xc1021150	-8.129227
36	0xc0d3625c	-6.6057568
37	0xc106aac3	-8.41669
38	0xc04a831c	-3.1642523
39	0x40083989	2.1285117
40	0x3eafc811	0.34332326
41	0x3d866c27	0.06563597
42	0xc0288c7f	-2.6335752
43	0xbcb5fb1e	-0.022214469
44	0xbf3f71b3	-0.74782866
45	0xbf39e9d7	-0.72622436
46	0x3e8094cb	0.2511352
47	0xbe99769b	-0.299733
48	0xbfd58542	-1.6681292
49	0x3ea1febb	0.31639656
50	0xbf573ab5	-0.84073955
51	0xbfab8a04	-1.3401494
52	0x3f1da06c	0.6157291
53	0xbfba55cf	-1.4557437
54	0x3f09a2a6	0.53763807
55	0xbfaae8e7	-1.3352326
56	0xc00eb552	-2.229817
57	0xbe36d171	-0.17853333
58	0xc0395254	-2.89565
59	0xc0bba7d0	-5.864235
60	0xbed95441	-0.42447093
61	0xc0c3dc20	-6.1206207
62	0xc13181ab	-11.094157
63	0x3fe7be9e	1.8105047
64	0x3ea80457	0.3281581
65	0xc00cfa48	-2.202776
66	0xc082a330	-4.0824203
67	0xbf08d668	-0.5345216
68	0xbf040bb8	-0.5158038
69	0xbf23f68c	-0.64048076
70	0x3e83b6e3	0.2572547
71	0x3f09942c	0.5374172
72	0x3ec50488	0.3848002
73	0xbf643588	-0.8914418
74	0xbdabc5ef	-0.08387362
75	0x3e94ae21	0.290391
76	0xbf458465	-0.77155143
77	0x3e808457	0.25100967
78	0xbf57e548	-0.8433423
79	0xbf5f4990	-0.8722162
80	0x3ec24d56	0.37949628
81	0xbee965ee	-0.4558558
82	0xbe8ac63a	-0.2710436
83	0xbef80390	-0.48440218
84	0xbf82fa7b	-1.023269
85	0xbf6b2a47	-0.91861385
86	0x3ed5d4d0	0.41763926
87	0xbc58bbd5	-0.013228376
88	0x3e3fea13	0.18741636
89	0xbf6ac699	-0.91709286
90	0xbf180aab	-0.5939128
91	0xbeef6ba0	-0.467618
92	0xbe6e3299	-0.23261489
93	0xbe8e7c0a	-0.2782901
94	0xbe90efc8	-0.2830794
95	0x3ed81b03	0.42208108
96	0xbef9be1d	-0.48777857
97	0xbda0ed32	-0.078577414
98	0xbfb0623c	-1.3779979
99	0x3ecad8c5	0.39618507
100	0x3ec6d4f5	0.38834348
101	0xbf0b91ef	-0.5451955
102	0x3e2d3e67	0.16918336
103	0xc006443e	-2.0979152
104	0xbb3942aa	-0.0028268495
105	0x3f32e4bd	0.69880277
106	0xbfaf776d	-1.3708321
107	0xbfe3b73e	-1.7790296
108	0xbf9eed39	-1.2416145
109	0xbf9ae95a	-1.2102463
110	0xbefff785	-0.4999353
111	0x3e1ad790	0.15121293
112	0xbea8928e	-0.32924312
113	0xbf2d734e	-0.67754066
114	0xbfa106cf	-1.2580203
115	0x3db32b4d	0.08748493
116	0x3ee506ac	0.44731653
117	0xbee2470a	-0.44194824
118	0x3e253b1f	0.16135834
119	0xbedeba28	-0.435014
120	0x3e3c280e	0.18374655
121	0xc10d337a	-8.8250675
122	0x3f364d28	0.7121148
123	0xbf7b17d1	-0.98083216
124	0xbf5fe820	-0.8746357
125	0x3f154ed7	0.58323425
126	0x3d8f81ff	0.07007217
127	0xbfdb5423	-1.7135051
128	0xbf2998ef	-0.66248983
129	0xc0d6653d	-6.699858
130	0x3ef3c454	0.47610724
131	0x3f040882	0.5157548
132	0x3f3e1f46	0.7426647
133	0x3e021711	0.12704112
134	0xc03f7622	-2.9915853
135	0xbfdac959	-1.7092696
136	0x3fc4b2a6	1.5367019
137	0xc014462d	-2.3167832
138	0xbf78296d	-0.9693821
139	0x3f978ca6	1.1839797
140	0xc0614238	-3.5196667
141	0x3e5f2c38	0.21794212
142	0x3da5108f	0.08059799
143	0xc03e54c7	-2.9739244
144	0xbe0eb082	-0.1393452
145	0xbfc4afee	-1.536619
146	0x3dbb0768	0.09132272
147	0xbef2723b	-0.47352776
148	0xbe8fcca5	-0.2808582
149	0xbff34036	-1.9003971
150	0x3ef201e4	0.47267067
151	0x3eb9681e	0.36212248
152	0xbfab89df	-1.340145
153	0xbec2f95e	-0.38080877
154	0xbdd3b2ef	-0.10336863
155	0xc002ce13	-2.0438278
156	0x3dd1b8aa	0.102403
157	0xbe26f0d7	-0.1630281
158	0x3ee5dbc0	0.44894218
159	0xbe7b36ce	-0.24532625
160	0xbe91c8fa	-0.28473645
161	0xbf3412a8	-0.7034097
162	0xbff3a2a1	-1.9034005
163	0xbf79bcb6	-0.97553575
164	0xbe4b8d11	-0.19878031
165	0xbf29bd9d	-0.6630495
166	0x3f81cc48	1.0140467
167	0xbe31d22d	-0.17365332
168	0xbcf38e4f	-0.029730944
169	0x3e511730	0.20419002
170	0xbf18324e	-0.5945176
171	0x3e10ccc1	0.14140607
172	0x3d657a13	0.056024622
173	0xbf7d0d55	-0.9884847
174	0xbf064630	-0.5245085
175	0xbfaae86f	-1.3352183
176	0xbfb286bc	-1.3947368
177	0xbefa4601	-0.48881534
178	0x3f25b227	0.64724964
179	0xc18b899e	-17.442196
180	0x3edffffb	0.43749985
181	0xbfb48260	-1.4102287
182	0x3cb75fb5	0.022384504
183	0x3e0b2755	0.13589223
184	0x3dd80253	0.10547318
185	0xbfe093b9	-1.7545081
186	0xc105afb8	-8.3554
187	0x3e196e0a	0.14983383
188	0x3e016dcc	0.1263954
189	0x3f5bc0f6	0.8584131
190	0xbef891a7	-0.48548624
191	0xc02070e1	-2.5068896
192	0xc07624b8	-3.8459911
193	0xc0737a5e	-3.8043437
194	0x3fa058a4	1.2527051
195	0xc123cbcc	-10.237255
196	0x3f131413	0.57452506
197	0x3f6e5512	0.93098557
198	0xbe32ee94	-0.17473823
199	0xbf708e2a	-0.93966925
200	0x3e2ab0d3	0.16669016
201	0xbe138050	-0.14404416
202	0x39a4f22c	0.0003146095
203	0xbfaa48af	-1.3303431
204	0xbef64d96	-0.48106068
205	0xc03dbdee	-2.9647174
206	0xc1243428	-10.262733
207	0x3f36c6fd	0.7139738
208	0x3ee53af0	0.44771528
209	0xc07886ff	-3.8832395
210	0x3e9a3bc2	0.30123717
211	0xbfda283a	-1.7043526
212	0xc08b59b5	-4.3547006
213	0x3f8c2263	1.0947994
214	0xbea24a06	-0.316971
215	0x3ea65a8a	0.3249095
216	0xbf190ffc	-0.59790015
217	0xc130f088	-11.058723
218	0xc0b834e9	-5.7564588
219	0xbf7e361b	-0.9930131
220	0xbe343c7a	-0.17601195
221	0xc014696c	-2.3189344
222	0x3f93ff0e	1.1562212
223	0x3f84f48e	1.0387132
224	0xc02f211f	-2.7363966
225	0xbfbbf972	-1.46855
226	0x3e33444a	0.17506519
227	0xbef39323	-0.47573194
228	0x3f0f1468	0.5589051
229	0xbef1f5e5	-0.47257915
230	0x3d62218c	0.055207774
231	0xbafe7873	-0.0019414559
232	0x3ee7f30f	0.45302626
233	0x3f09f05f	0.538824
234	0xc006e33e	-2.1076198
235	0xbf588838	-0.84582853
236	0xbf771be0	-0.9652691
237	0xc19c9b50	-19.575836
238	0xc011cb00	-2.2780151
239	0x3ea26a29	0.3172162
240	0x3eb545d7	0.35404846
241	0x3f2be440	0.67145157
242	0xbfbbeb5d	-1.4681202
243	0xbca29ae0	-0.01984924
244	0xbf02ffce	-0.51171577
245	0xc0220341	-2.5314486
246	0xbf931a18	-1.1492338
247	0xbf9f6857	-1.2453717
248	0x3ef08a1d	0.46980372
249	0xbf9897e0	-1.1921349
250	0x3f232377	0.6372599
251	0x3f8cfbf5	1.1014391
252	0xc1225f0c	-10.148205
253	0xbf6bed0d	-0.92158586
254	0xc0c65fd0	-6.199196
255	0xbe02c05b	-0.1276869

l3.bias f4 [111]
0	0xbd384db2	-0.04499597
1	0x401f8801	2.492676
2	0xbe8531ea	-0.26014644
3	0xbefd6ece	-0.494986
4	0xbfb7bba9	-1.4354144
5	0xbf368229	-0.7129236
6	0x3edefdff	0.4355316
7	0xc03d2567	-2.9554079
8	0xbebe416f	-0.37159297
9	0xbddc94f3	-0.10770597
10	0xbe5ad555	-0.21370442
11	0xbfd2c44b	-1.6466154
12	0x3ac19fba	0.0014772334
13	0xbe02ae45	-0.12761791
14	0x3eccdd30	0.40012503
15	0xbffef9f1	-1.9920026
16	0xbfdebccf	-1.740137
17	0xc0cf1976	-6.471858
18	0x3f9d3d23	1.2284282
19	0xbf90f979	-1.1326133
20	0x3e773e7f	0.24144934
21	0x3ea6c86a	0.3257478
22	0x3edeec5b	0.435397
23	0xc02cde7b	-2.7010791
24	0xbfdb5acf	-1.7137088
25	0xbed95871	-0.42450288
26	0xbfba370b	-1.4548048
27	0xbf5ec05a	-0.87012255
28	0x3e96656c	0.29374254
29	0x3ea4bb0b	0.32173952
30	0x3ef7b94b	0.48383555
31	0xc0080791	-2.1254618
32	0x3f4369e3	0.76333445
33	0xbff8dec9	-1.9442989
34	0x3eb8e6af	0.36113498
35	0xbf00fdce	-0.50387275
36	0xbec78489	-0.38968304
37	0x3db75eb6	0.089536116
38	0xbf098320	-0.53715706
39	0xbf1b8a25	-0.60757667
40	0x3ebca23d	0.36842528
41	0x3da955fb	0.082683526
42	0xbffb45af	-1.9630641
43	0x3f104d77	0.563682
44	0xbf908ccb	-1.1292967
45	0xbf04ee02	-0.5192567
46	0xbf62b75f	-0.8856105
47	0xbe8cbd38	-0.27488112
48	0xc03403f0	-2.8127403
49	0x3ea905d3	0.33012256
50	0x3e5c94c1	0.2154112
51	0x3f2eb206	0.6824039
52	0xbdbebcb4	-0.09313336
53	0xbf46e7de	-0.7769755
54	0xc00bb13f	-2.1826932
55	0xbf2ea5a1	-0.6822148
56	0x3ea05ffd	0.31323233
57	0x3e6e742e	0.23286507
58	0xbf48a5cb	-0.7837798
59	0x3eab979a	0.335141
60	0xc00ae4fa	-2.1702256
61	0xbfb3944d	-1.4029633
62	0xbebfe8be	-0.37482256
63	0xbf04fb61	-0.51946074
64	0xbf0954f8	-0.5364528
65	0xbb5f87ff	-0.003410816
66	0x3f095f13	0.53660697
67	0xbf623f26	-0.88377607
68	0xbf317ac8	-0.69327974
69	0xbd89cebe	-0.06728886
70	0x3e95bc03	0.29245004
71	0xbf599206	-0.8498844
72	0xbf35e4a4	-0.71052
73	0x3f1596fe	0.5843352
74	0xbf5dd647	-0.86655086
75	0xbf824014	-1.0175805
76	0xbf084249	-0.53226143
77	0x3f7cbf40	0.98729324
78	0xbe44599c	-0.19174808
79	0xbfbf2e56	-1.4936016
80	0xbf0c4e23	-0.5480673
81	0x3f231f94	0.6372006
82	0xbe9d1539	-0.30680254
83	0xbecbd25f	-0.39808938
84	0xbdb8486a	-0.08998187
85	0xbec62e3c	-0.3870715
86	0x3eaaf463	0.33389577
87	0x3f51ed1d	0.8200243
88	0xc06f0551	-3.7346995
89	0x3e8b1851	0.2716699
90	0x3eb665d3	0.3562456
91	0x3f7c9768	0.9866853
92	0xbba9f56e	-0.005186728
93	0xc007eed4	-2.123952
94	0xbdfef616	-0.12449281
95	0xbece1a23	-0.40254316
96	0x3f8a3cd9	1.0799819
97	0xbecbae1b	-0.3978127
98	0x3e6818de	0.22665736
99	0xbf5b410a	-0.85646117
100	0xbecf841d	-0.40530482
101	0xbf363073	-0.7116768
102	0xbfd32ae9	-1.649747
103	0xc033a2db	-2.806815
104	0x3ea1a535	0.31571355
105	0xc03593f6	-2.8371558
106	0xc055da5a	-3.3414521
107	0xc006d2cf	-2.1066167
108	0xbef6b0ee	-0.48181862
109	0xbf1701f8	-0.5898738
110	0xbd3b2e0c	-0.04569821
